RNNs/nationality_model.pth (torch, 107674 bytes, 6 tensors)

rnn.weight_ih_l0 f4 [128, 58]
00000000: 1c67 ef3d 7fc2 94be 6662 c23e 291c 89be
00000010: b788 4dbf 22e4 d8be 9754 f6bb a8a9 aebe
00000020: c2b6 193f bd36 0e3f 54ef 403e b070 f03d
00000030: 291b 1bbd e7a5 553c 3cc6 8a3e a769 283f
00000040: 7f08 67be bf23 8bbe e72e 1abd 40e7 5e3e
00000050: 1463 ad3a b40e 3c3f ad36 6bbe 96be 17bf
00000060: fb28 21bf aca7 133f a325 3f3e 84d5 57be
00000070: 22bc b33d 0ca8 2d3d 85a5 c1bd 05fe 453e
00000080: 85d6 0ebd eac1 cabe 2c5e d2bc bec0 713d
00000090: f409 5a3d bd0a e23d e1a3 7bbd d0b1 6e3c
000000a0: 88d7 7ebe 65ce ba3b 43b8 edbe 24a5 66be
000000b0: 3fc4 e2bd 39dc a1be 7937 f43e e6f1 e0bd
000000c0: 47a1 ccbe e60d 95be 8a7e 43be d2b4 91bd
000000d0: 1f7e c33d 1e4b 3ebd 8488 6b3e 0f0b 05bd
000000e0: d1ce ae3d 5b09 6a3d 8b95 b33e b3bb 363f
000000f0: c5d4 6f3f 5823 95be 7581 2ebe 44c1 103e
00000100: 9879 15be bdbc 933e 638c 98bd 7c50 0ebf
00000110: 05c2 0abf 9510 68bd 2b56 dabd f169 8ebd
00000120: e494 71bd bd11 f13e e371 823e 16ff d4bd
00000130: aace a7be 4803 8abd 161b 863d bd03 e5be
00000140: 22ee a7be 4bab 09be 3828 35be 31a1 073f
00000150: 452b 8f3e 0dc8 00be ab22 003e 3c26 863e
00000160: 0cb5 0e3e 32e1 413d 96a2 8c3e 2726 5dbc
00000170: 9246 05be 09fb 4fbd fcd7 99be eb4b bd3d
00000180: 7eea eebd 437d b5bd 9652 1cbe 3e38 00be
00000190: ac6c fd3b c3a8 5b3e cc0f 693e 212b 50bd
000001a0: deca a03d 6a81 7bbb 22cb b3be 6809 263e
000001b0: ce07 59be e8f6 2b3d 98e8 dcbe 09c3 a7bd
000001c0: 3eb2 7dbe be76 8bbd b109 52be bf57 afbd
000001d0: 2d89 6c3e 628e 2b3e 4121 0dbe 6667 2c3e
000001e0: fcb8 dabe 4734 0dbf df59 843e 09ba 18bd
000001f0: f045 57bf 97be 153f 1207 0f3f 0d72 f13d
00000200: a9c4 533e cd7e 73be b7bf 253c ae83 8d3e
00000210: 560d c03b 000e c03e 00cc 513e 1b8c dbbe
00000220: 3bd1 b5be 69b9 623e 80c9 2ebe b958 22bf
00000230: bf74 a23c 59c0 1e3f f2c6 8dbe b732 8bbe
00000240: d0e0 d3bc 3721 cf3d 6ca7 d23c 470d 4cbe
00000250: c0e8 fdbd c9ca a7bc 14a5 ba3e cd0a 0dbe
00000260: 8927 533e f86e 26bc 24ce 5ebe 82fc 203c
00000270: 101f 18be 9d40 b33c a676 9cbe 5e57 db3c
00000280: 81d9 353e 6dc7 0bbe caf0 793d fdb5 703d
00000290: 0268 a5bd 81e9 72be 06ea 47bd 3623 bd3d
000002a0: 9fd1 273d a9a1 66bd 9e7a 303e 1ddf 8c3d
000002b0: 1aea cebe 1943 80bd dd3c 773c ed81 163d
000002c0: f9ea 20be 21b5 aa3c 15c2 6e3e 27a3 823e
000002d0: b92a aabf 8c95 463e 65ad 82be 1780 65be
000002e0: 5d8b 7ebf e985 033e b3ed b9bd 5141 bbbe
000002f0: 9175 d7bc 4ada 03be 57ff 873e de29 07be
00000300: 998a 553f 095c 783e 8ad9 ce3e 1df1 94bf
00000310: f3e9 e33e 050e 703f 703c a93e f73d 9f3e
00000320: df84 713e e4f9 3fbe 4af9 26b9 8a38 0f3d
00000330: b9bc 54be f84b 00bd 4bd9 d83e abdc 8b3d
00000340: ff91 f4bd 7649 273c 4291 6abe 260a 2a3e
00000350: 3225 013e 0bef 8d3b caf5 28be 463d 1ebd
00000360: 093e 983e d57a 363e f098 d73d 17cd 4c3d
00000370: 0758 273b 8d67 83be 0dd3 923e b269 193f
00000380: 141b 0b3e 2421 9bbd 3d6e c2bc 4b1a 073d
00000390: 96d4 8fbe dc42 993c 48dd 83be 47b6 6e3d
000003a0: 3036 a33e 49bd 943e bd67 17be e185 6f3f
000003b0: bb33 fb3d 0776 973e 77d6 0f3f a1f4 2bbe
000003c0: 47b5 a4be 4e7f d03e 5ef0 193e a7c0 ae3e
000003d0: 23f6 173d cbe1 86be 3cbe c33d c3ab a13e
000003e0: 8f0a d73e 24e7 a4be 95c9 c53e 5075 7e3e
000003f0: 0755 523d b130 3cbe b1ff a83e 9dd7 17bd
0.116895884 -0.2905464 0.37965697 -0.26779297 -0.80286735 -0.42361552 -0.007517408 -0.34113812
0.6004449 0.55552274 0.18841296 0.117402434 -0.0378677 0.0130400425 0.27104366 0.6578621
-0.22561835 -0.2717571 -0.037642386 0.21767902 0.001322838 0.73459935 -0.22970076 -0.59275186
-0.62953156 0.5767772 0.18666701 -0.21077543 0.08776118 0.04239659 -0.094553985 0.19335182
-0.03487255 -0.3960107 -0.02567967 0.059021704 0.05323215 0.110372044 -0.061435584 0.014568761
-0.24886906 0.0057008737 -0.46429643 -0.22523934 -0.11072587 -0.3161333 0.47698572 -0.109836385
-0.39966795 -0.29112166 -0.1909124 -0.07114567 0.0954554 -0.046458356 0.23001295 -0.03248125
0.08535541 0.05713783 0.3507503 0.71380156 0.93684036 -0.29128528 -0.17041571 0.14136225
-0.14597166 0.28854933 -0.07448652 -0.5559156 -0.542023 -0.05665644 -0.106609665 -0.069538005
-0.058979884 0.47083846 0.25477514 -0.10400216 -0.3277486 -0.06738907 0.06548135 -0.44729415
-0.32798868 -0.1344425 -0.17691123 0.52980334 0.279627 -0.12576313 0.12513225 0.26201046
0.13936251 0.047333904 0.27467793 -0.013497866 -0.13015202 -0.050776515 -0.30047596 0.09242996
-0.116658196 -0.088617824 -0.15265879 -0.12521455 0.007733902 0.21451096 0.22759932 -0.05082238
0.07851194 -0.0038376697 -0.35115916 0.16214526 -0.21194384 0.041983515 -0.43146205 -0.08191497
-0.24775025 -0.06809758 -0.2051151 -0.08561658 0.23099203 0.16753533 -0.13782217 0.16836318
-0.42719257 -0.55157894 0.25849816 -0.037286792 -0.8409109 0.5849394 0.55870163 0.117893316
0.20680489 -0.2377884 0.010116509 0.27639526 0.005860965 0.3751068 0.20487976 -0.4288033
-0.35511193 0.22141041 -0.17069054 -0.6341663 0.01983106 0.6201225 -0.27690846 -0.2718713
-0.025864035 0.10113757 0.025714599 -0.1992694 -0.12397909 -0.020482438 0.3645407 -0.13773651
0.2062055 -0.010158293 -0.21758324 0.009825828 -0.148556 0.021881396 -0.30559272 0.026775058
0.17758752 -0.13650294 0.06102065 0.058767308 -0.080764785 -0.23721887 -0.048807167 0.092352316
0.040971395 -0.056306515 0.17234275 0.06878493 -0.4041298 -0.06262798 0.0150901945 0.036745
-0.15714635 0.020838322 0.23316224 0.255151 -1.3294288 0.19392985 -0.25522915 -0.22412144
-0.994314 0.12844051 -0.09078541 -0.3657327 -0.026301177 -0.1287624 0.26561996 -0.13199565
0.8341461 0.24253859 0.40400344 -1.1636082 0.44514427 0.9377139 0.33053923 0.31101963
0.23585843 -0.1874767 -0.00015923861 0.03496603 -0.20775117 -0.03132245 0.4235328 0.068291984
-0.11941909 0.010210386 -0.22906974 0.16605434 0.12611845 0.0043314747 -0.16500011 -0.038632654
0.2973483 0.17820294 0.105272174 0.050000276 0.0025534646 -0.2566494 0.28676644 0.59926903
0.13584548 -0.075746804 -0.023734206 0.03298406 -0.28091878 0.018708639 -0.25754762 0.058279302
0.3187728 0.29050663 -0.14785667 0.9356366 0.12265726 0.29582235 0.5618662 -0.16792537
-0.32169554 0.40722126 0.15033099 0.34131357 0.03709997 -0.2634414 0.09557769 0.31576356
0.42000243 -0.32207596 0.38630357 0.24849439 0.05135062 -0.1837795 0.33007577 -0.03707086

rnn.weight_hh_l0 f4 [128, 128]
00000000: 396a d0bd 4ff5 073d 4246 fbbc 8d22 f6bd
00000010: cf96 583c 61a7 b1bd 866a 97bc 412d 6d3c
00000020: fb43 f73b 2599 a7bd f70c bb3d 095f 52be
00000030: 83b0 253d 4c08 28bb 0a65 4e3d 3593 80bd
00000040: 5607 a5ba 82cc 113e b336 9d3d e494 01bd
00000050: d4cb 46bd 2c31 4e3e f3b2 4b3d 4e66 1cbd
00000060: be20 dbbd a123 cc3d 1374 31bd e4f3 11be
00000070: f039 2e3e f1be cabc 5e16 02bd 20e8 03bd
00000080: a11f 7bbc 7ab0 41bd 97b2 85bc ddca b0bd
00000090: 05cb 123d f830 443d 976b 68bc c7bb 223e
000000a0: a58f 43bd eea1 02be 28a5 d93d e0b6 963e
000000b0: c292 483e 2903 1a3d 5127 813d 337f 6a3d
000000c0: f9b0 09be 024c 44be 6437 163e 9152 a4bb
000000d0: 17af 84bd b9ef 193d 6d3e cd3d 054c a4bd
000000e0: fc44 77bd b40f 423c 9ff0 54bd 7d35 073c
000000f0: a58d 6ebc da23 56bb a1f7 0dbe a3ab 46be
00000100: b264 213e e66d fdbd 9521 263d c83d 6dbd
00000110: badb 013e d457 9a3c 3f9a 79bd 0844 50bd
00000120: 43d3 e9bd 151e f4bc 5c5a 11be bed7 15be
00000130: d192 bb3d 695b 10bb c5ef fdbd bd4c ae3d
00000140: 79b8 8c3d bd1a 283d 7acb 413e 1296 8bbd
00000150: fa9e ba3d 657c 613d f290 30be b3ff 1a3c
00000160: 6a47 d9bc b3d2 f0bd 0952 8c3e 820c 473d
00000170: a956 c83a 1b49 d43a c31a 843c 3753 2fbd
00000180: 3169 4ebe 46cf 8abd b574 9ebd e155 4fbe
00000190: cac9 90bd 2fcb 7d3d 4368 0a3d c28b 68be
000001a0: 3fbe b0bd e1f5 e3bd 2cd2 68bd 9352 9cbc
000001b0: 8ba6 bcbc a920 de3d 1919 833e 6e2b 3bbe
000001c0: aa4b 6fbd 038b 48bd de60 853e 8719 1a3d
000001d0: ebad 613d ca0d bd3d 60c7 e5bc 41b7 523e
000001e0: d210 1d3e 3bff b53d 9a7f 123e 00b4 ea3c
000001f0: fa95 823d 171a 47be 5c23 e3bc b044 3c3e
00000200: 51fa 30bc 4d99 7b3e 42e9 31be e513 4ebe
00000210: 85d3 b93c 1920 55bd 9ba0 8c3d a62c 89be
00000220: 8401 003e 0b14 5d3e bcf2 b33c 4ade 533e
00000230: 5f5f 6cbe ce33 24be 3d5d 82bd 57ed 8bbe
00000240: 77cc ae3d 2e2a bc3d 85d0 0cbe e9d9 ae3d
00000250: 28e0 423e 82b5 bebc 721a b33d b548 583e
00000260: 99e8 fbbd d9f7 b93d 5279 8bbd e4c4 c33d
00000270: 7932 30bc 59dd b4bd 66a9 fabd e1ec 3c3d
00000280: 0287 013e 5ae3 ddbd bb42 b13e b98c 013e
00000290: 133a ec3c ce4d 40be 90b5 4ebe a43a e63b
000002a0: 549d 823d 35ed 933e 685d a3bc 3fb9 223c
000002b0: 693c f7bd 1b90 3fbe 157a 59bd 1489 9e3d
000002c0: e536 2abd 0699 c9bd 5254 943d f376 fdbd
000002d0: ae7b 8ebc d207 c23d e754 153e 0908 d53c
000002e0: c246 2dbe e2a6 2a3d 4485 94bd 1768 82be
000002f0: a8bd 26be 0fc5 f13d ff19 c73c 49c4 7c3e
00000300: c41b 3bbc ad3e 783d 936e 45bc e6e9 943e
00000310: 9ceb 0c3e eb10 12be f80c 87be e3b9 18bd
00000320: c36a f8bb b4fb 643c 4b6d 853e ca04 edbc
00000330: 1fda 57bd a3e7 5abe 0f97 963c 5696 12be
00000340: ddeb 6dbc 02e7 bfbd 5e0e 0ebd 56ab 2f3e
00000350: fa46 da3d 01d5 f7bd 7260 0e3e 50eb 053d
00000360: 0a24 72bd 35cd 713c f292 8fbd b5be 2fbe
00000370: 3806 c1bc 36dc 29bc 1b92 41bb 7dd6 17bc
00000380: 9f47 fbbd e5e1 223e 74b2 0fbe cf98 d7bd
00000390: 347a 09bd 21d9 e73c f55a fa3d 2400 ac3d
000003a0: 3b1c 1b3e 0090 d9bc 1eb7 2d3d f497 3bbd
000003b0: 6f8b 8d3d 9de0 cfbd 64b8 913d 3096 4abd
000003c0: cfc4 12bd 77e9 103e d4cd 3c3d 4a00 fd3d
000003d0: e619 4cbc 449e 0cbc 4c96 8ebd 58fd d03d
000003e0: 12cb 163e aca2 1d3c 5b56 42bd d4b0 7fbd
000003f0: f536 98bc 1f91 9f3d 7bdd dfbd b83e f03c
-0.1017651 0.03319293 -0.03067315 -0.12018309 0.013219549 -0.08674503 -0.018483412 0.014476121
0.0075459457 -0.08183507 0.09133332 -0.20544066 0.040451538 -0.002563971 0.050389327 -0.062780775
-0.0012590687 0.1423817 0.07676449 -0.031636134 -0.04853423 0.20135945 0.049731206 -0.038183503
-0.106996045 0.09967733 -0.043323588 -0.14253193 0.17014289 -0.024749251 -0.031759612 -0.032203794
-0.015327365 -0.04728744 -0.01632051 -0.08632443 0.035838146 0.047898263 -0.014185808 0.15891944
-0.047744412 -0.12757084 0.10627204 0.29436398 0.19587234 0.03760067 0.06306327 0.057250213
-0.13446416 -0.1916962 0.14669567 -0.0050147255 -0.06478708 0.037582133 0.100216724 -0.08022312
-0.060368523 0.011844564 -0.051987287 0.008252499 -0.014560138 -0.0032675178 -0.13863994 -0.19401412
0.15761068 -0.12374477 0.04055937 -0.057920247 0.12681475 0.018840708 -0.060938116 -0.05084613
-0.11417248 -0.0297995 -0.14194626 -0.1463308 0.091588624 -0.002202714 -0.12399248 0.085107304
0.06871123 0.041041125 0.18925276 -0.06815733 0.091123536 0.055050272 -0.17242792 0.0094603775
-0.02652331 -0.11758938 0.27406338 0.048595913 0.0015284616 0.0016196104 0.016126042 -0.04280397
-0.20157315 -0.067778155 -0.07737104 -0.20247604 -0.07069738 0.06196135 0.033790838 -0.22709563
-0.086300366 -0.11130882 -0.05684106 -0.019082343 -0.023028633 0.10846073 0.25605085 -0.18278286
-0.05842177 -0.048960697 0.26050466 0.037622 0.0550975 0.09231146 -0.028049171 0.20577718
0.15338448 0.08886572 0.14306489 0.028650284 0.06376262 -0.19443546 -0.027726822 0.18385577
-0.010801868 0.24570198 -0.17374137 -0.20124777 0.022683868 -0.052032564 0.068665706 -0.26791877
0.12500578 0.21589677 0.02196633 0.20690265 -0.23083256 -0.16035387 -0.0636544 -0.27329513
0.08535092 0.09187733 -0.13751419 0.08537657 0.19030821 -0.023279909 0.087452784 0.21121486
-0.12300224 0.09080476 -0.068102494 0.09559038 -0.010754221 -0.08831281 -0.122393414 0.046124343
0.12649158 -0.108343795 0.34621224 0.12651338 0.028836286 -0.1877968 -0.20186448 0.0070260335
0.06377664 0.28891912 -0.019942 0.009931861 -0.12072069 -0.18707316 -0.053094942 0.07740989
-0.041556258 -0.0984364 0.07242645 -0.123762034 -0.01739296 0.09474148 0.14583169 0.026004808
-0.16921523 0.041663058 -0.07251981 -0.2547004 -0.16283286 0.11805164 0.024304388 0.24684252
-0.011420194 0.060606647 -0.012050289 0.290847 0.13761753 -0.14264266 -0.26377082 -0.03728665
-0.0075810864 0.013976026 0.26059946 -0.028932948 -0.05269825 -0.21377425 0.018382577 -0.14315161
-0.014521566 -0.09370233 -0.03468167 0.17155203 0.10658069 -0.12101174 0.13903978 0.032695115
-0.0591164 0.014758398 -0.070104495 -0.17162593 -0.023562536 -0.010367444 -0.0029536549 -0.009267447
-0.1226952 0.15906484 -0.14032918 -0.10527193 -0.033563808 0.028301777 0.1222438 0.08398464
0.15147488 -0.026557922 0.042410962 -0.04579921 0.069113605 -0.101502635 0.07115248 -0.049459636
-0.035832223 0.1415156 0.04609473 0.12353571 -0.012457347 -0.008582655 -0.069622606 0.102045715
0.14725903 0.0096213035 -0.047445636 -0.062424496 -0.018580893 0.077913515 -0.10930916 0.029326782

rnn.bias_ih_l0 f4 [128]
00000000: 1345 f93c 7a53 9abd 554e 403d fd6c bb3c
00000010: 7da0 2e3c 3a9a 31bc 618c 1bbd eeda 293d
00000020: 49ad 1cbd 1191 97bb d85c b33c ca0a d83c
00000030: b4f4 d2bb fc40 bdb9 6a76 093d 9117 90bc
00000040: 4644 9e3d 5963 3d3d 1f30 90bd d520 ac3d
00000050: f2bd 0abd 1da9 ccbc ea5a 1c3c e9a1 103c
00000060: d211 8b3d e3e6 69bc 8d5f bfbd 0682 b43d
00000070: cb8e c4bd 4d8b 17be 92cb db3c 77bc a5bc
00000080: 4902 5b3d 917d a93d 9e65 a0bc 60dd ddbd
00000090: 4a8c bbbc 4c9f 1abc a11c 2f3c 8d15 b93d
000000a0: 038b a3bb 7a44 4b3d 9fd6 3a3d ddd9 a7bc
000000b0: 03e9 67ba f94a b23b 26d5 7dbd a281 433c
000000c0: a63d a8bc b977 893b 51ee b63d 9a46 9bbb
000000d0: 59a6 96bc ab1f 1a3d 8e92 d63c 2b62 1d3d
000000e0: edab 123d d3fc 6f3d e3dc e53d e15f 89bc
000000f0: ca8b 6d3d 7d43 9c3d 31f0 77bd 5902 69bd
00000100: b2d6 9bbd 38f1 8b3d 58eb 933c d723 7f3d
00000110: 11ac 6bbc 106c 87bd ff42 b0bd 67b8 1c3d
00000120: a230 ca3d a6a5 79bd 3c69 2fbd 7df1 243d
00000130: 3adc ea3c 0e8c 07bd 3322 f73d 995f 063d
00000140: ba92 783d 1656 d63b ae7d 953c e422 323d
00000150: a8d7 ecbc 035e 26bc a2e6 143d a7cd b43c
00000160: 0da4 2bbd 60f0 06ba bc75 943c 7472 1fbd
00000170: 98a6 123c 425f 10bd 364c 6ebd fe23 813d
00000180: 0758 9abd 74a6 953b a916 353d e15a 053e
00000190: f6d5 e5bd e58f 6bbd bd2e d9bc eb78 883d
000001a0: 9f73 b83c 38e7 38bd 37d6 6c3c a9d7 8abd
000001b0: 8349 333c 65b9 06be 8b83 8ebc a3a7 14bc
000001c0: 1894 40bd b3f1 f1bc 493d 3bbd 8f9f fc3d
000001d0: 2889 573d fc67 883a 17dd e1bc c3c7 b63c
000001e0: b96e 4dbd dbed d8bc d90b 463d 9165 0c3d
000001f0: 2f49 833d 09b2 163c 5c95 3abc 1b22 4dbc
0.030428445 -0.07535453 0.046949703 0.022879118 0.010658381 -0.010839993 -0.037975673 0.041468553
-0.038251195 -0.0046254476 0.021894857 0.026372332 -0.0064378623 -0.00036097306 0.033560194 -0.017589362
0.07727866 0.046237323 -0.07040428 0.084047 -0.033872552 -0.024982983 0.00954316 0.008827665
0.06790508 -0.014276239 -0.09344397 0.088138625 -0.09597548 -0.14799233 0.026830468 -0.020231469
0.053468976 0.08275903 -0.019579705 -0.108332396 -0.022894043 -0.009437393 0.010687978 0.090373136
-0.0049909367 0.04962585 0.045614835 -0.020489627 -0.0008846672 0.0054410663 -0.061970852 0.011932762
-0.020537209 0.0041951803 0.08932174 -0.004738641 -0.018389868 0.037627857 0.02619293 0.0384237
0.035808492 0.05859072 0.112237714 -0.016769351 0.05799464 0.0763006 -0.0605318 -0.056887005
-0.07609309 0.06833118 0.018056557 0.06229004 -0.014384286 -0.06612408 -0.086065285 0.038261797
0.09872557 -0.06094899 -0.04282497 0.040269364 0.028669465 -0.03309255 0.1206707 0.032806013
0.060686804 0.006541024 0.018248405 0.043490306 -0.028911427 -0.01015425 0.03635276 0.022070719
-0.041904498 -0.0005147513 0.018122546 -0.03892751 0.008950852 -0.035247095 -0.05817815 0.06305693
-0.07536321 0.004566962 0.044211064 0.13022949 -0.112224504 -0.057510275 -0.026511544 0.06663688
0.02251607 -0.045142382 0.01445537 -0.06779415 0.0109428195 -0.1315666 -0.017396709 -0.009073171
-0.047016233 -0.029534196 -0.045712743 0.12335121 0.052621037 0.0010406966 -0.027571244 0.02231205
-0.05015442 -0.026480606 0.048351143 0.03427655 0.06410443 0.00919772 -0.011388149 -0.012520338

rnn.bias_hh_l0 f4 [128]
00000000: 8a19 d4bb eb81 183d d91e b9bd bd67 83bd
00000010: 3a17 8b3d a1e4 92bc 89b6 ef3c f697 303d
00000020: f780 0dbd c175 733d bd14 9f3b 94ed 493d
00000030: 4b7c 84bc 63b9 1b3c 6730 b33d 2457 c13b
00000040: 4d81 033d e049 c83c ad45 e8bb 33a0 df3b
00000050: 5923 963c a17b 813d 6392 c9bd f9b0 d6bc
00000060: a972 11bb 2804 34bd faba 1e3d d007 51bd
00000070: 79a8 963c 4072 08be 2c1a 5b3d d93f 203d
00000080: 2654 233d cd17 b33b e48c 973d dfc1 26bd
00000090: bcfd da3d 381e 773c 8f5f c0bc 6c9d 8b3d
000000a0: fa92 cc3c 795a 093c 5f13 793d 4e09 34bc
000000b0: 3924 773b ec04 183e 2001 5abd 0277 933d
000000c0: 0ff7 82bb 6cd2 a53d b610 ce3d 0a03 363d
000000d0: 73a2 8d3d 4c55 54bd 4153 c53c a096 89bd
000000e0: 436e 27bd efd5 483d c295 5c3d 592f 573b
000000f0: 0540 813d add2 26bd d52f fe3c 1609 4e3b
00000100: 9b38 1cba 1235 65bc 14f0 c8bc 9914 1cbc
00000110: 592f a9bd d6c7 7f3d a73d c0bd e1d6 2a3d
00000120: d809 8ebc 4698 b03d b1a9 3cbd bf9d 45bd
00000130: 7d63 53bc 56da 7e3d 0846 9239 3d8d 7c3d
00000140: 7b8b 9abd 392c 37bd 8226 9e3c 2ca7 28bd
00000150: d9a8 8bbd 4cce 3bbd ff2b 523c 29f2 943d
00000160: 29a3 893d 1e7e 853d a9a9 073d 085d dfbd
00000170: 4699 c8bc a19a 51bd 8f4b 9b3d 6d84 45bd
00000180: 190c e3bd 4f97 4abd 486e ce3c f49f e3bc
00000190: 03e0 babd 1b4b 25bd 693c 5b3d 877e 453d
000001a0: 4b80 2f3d 0510 91bd e2a1 d2bd 7280 14bc
000001b0: 0c87 213c 7449 09be 9ce4 e1bc de06 9c3c
000001c0: 23d3 9ebc 4c22 4ebd 5667 303c 3ff7 efbc
000001d0: a085 84bd e8b3 09b9 56ec 4cbc 1072 49bd
000001e0: 4ea7 553d f82b 8c3d 45c6 39bd ce03 8fbd
000001f0: 006c 8abd ed19 8fbd 4941 b73c 986f dd3d
-0.006472771 0.037233274 -0.09039087 -0.06416271 0.067915395 -0.017931284 0.029261844 0.04311367
-0.03454682 0.05943847 0.004854767 0.049298838 -0.016172549 0.009504649 0.087494664 0.0059002806
0.032105733 0.024449289 -0.007088384 0.006824517 0.018327402 0.063224085 -0.09842374 -0.026207434
-0.0022193587 -0.043949276 0.038752533 -0.05103284 0.01839088 -0.13324833 0.053491756 0.03912339
0.039875172 0.0054654838 0.0739992 -0.040712234 0.10692927 0.015082888 -0.023483066 0.06817135
0.024972428 0.008383387 0.06080949 -0.010988547 0.00377108 0.14845628 -0.05322373 0.07200433
-0.003996737 0.080967754 0.10061781 0.044436492 0.0691575 -0.051839158 0.02408755 -0.067181826
-0.04087664 0.049032148 0.053853758 0.0032834618 0.06311039 -0.04072826 0.031028667 0.003143852
-0.00059593626 -0.013989704 -0.02452854 -0.009526395 -0.08260984 0.062446438 -0.09386759 0.04170883
-0.017338678 0.08622794 -0.046060268 -0.04824614 -0.012902138 0.06221994 0.00027899467 0.061658133
-0.07546135 -0.04471991 0.019305471 -0.041175053 -0.068193145 -0.045851037 0.012827872 0.07272751
0.067205735 0.065181956 0.033120785 -0.10906416 -0.024487149 -0.051172856 0.07582771 -0.048221994
-0.11086292 -0.049460705 0.02519907 -0.027786233 -0.09124758 -0.04035483 0.05352441 0.04821637
0.04284696 -0.070831336 -0.10284783 -0.009063827 0.009858858 -0.13406926 -0.02757483 0.019046243
-0.019387787 -0.050325677 0.010766825 -0.0292927 -0.064707994 -0.00013132358 -0.012507519 -0.049181044
0.052161507 0.06844324 -0.0453551 -0.069831476 -0.067588806 -0.06987367 0.022369998 0.108123004

fc.weight f4 [18, 128]
00000000: 99f1 443e 60dc b13e 8875 8a3e 0279 25bf
00000010: cf7b 2dbc b387 bb3d e5ff dc3d 7d04 25be
00000020: a4b5 1abe a500 16be dd0a 3cbd aa88 1b3f
00000030: 1283 2b3e 7892 babd 06ba 443e bdc1 e93e
00000040: 41c8 593d 4a20 713d f432 dc3e ed1c 9a3c
00000050: 9cb0 4e3b cafd 913e 5578 b1be 6d66 9b3d
00000060: 1891 b0be b445 103f 88c3 523d 3e6c dfbe
00000070: 67ce cebe e840 713e d4fa 1ebd 1382 bc3c
00000080: 6722 3b3e 4a11 2bbd 6166 013d f359 283d
00000090: b7d8 f3be fdd3 373e 0780 183e 91b1 c2be
000000a0: 8ca9 19bd 0b5b 003e d1aa 91be 586b 783d
000000b0: 329c acbe 302b 5a3c 26c7 a73d 16a6 623e
000000c0: 20ae 04bf 8ab7 2bbe 2332 adbd 3905 16be
000000d0: 1502 a7be 69c0 50be 8086 b13e 9b07 1d3e
000000e0: d6ff 103e 67ae 523e 284b abbd 0020 debd
000000f0: d7a4 a53e 1049 67be 7714 83be 50fb b53d
00000100: e761 ff3d 70a0 10bc 38ea babe c592 4b3e
00000110: 7db0 a43d 2ac9 9a3d 2138 d9be 1772 183e
00000120: 042e 9e3c c1b5 61be d24e b53e e5a7 ac3e
00000130: 9d91 a0be 4ea1 90bd 6761 eebc 80b9 84be
00000140: 36fc 823e e1ee 2cbe 9fdf fdbd 7907 663d
00000150: f242 4cbd 03d7 2e3e d35a 40be 05a1 bf3e
00000160: 8780 a83e 4c44 fc3d 2e31 a23e b46e 453e
00000170: f325 07bd 0a06 cc3e bc1a e73d 0a6b ca3e
00000180: ecea 7ebe 1ff7 c0bc 0a81 b4bd 025a 9cbd
00000190: 4923 3abd e1b0 f33d 2e1e 253e aecf c4bd
000001a0: 316e 0bbe fdb6 6b3e f41b 033e 601d 83bd
000001b0: 03c3 a0bc 1c39 4f3e d507 3dbe e7e7 9cbb
000001c0: 541a 143e 639b 633e 9ef9 8dbe a0c9 983e
000001d0: 4b59 91be c0c4 9abe 1c81 42be a84b 29be
000001e0: 9d9d 9abd a05e b83d c830 ca3e fd84 31be
000001f0: 5385 84be e21c 21bc 9960 233e 7424 3cbe
00000200: f43b 693c 93fa 17be 275f c9bd 4d94 583f
00000210: 1a16 d8bd 2705 4c3e 9606 e53c 1bd1 4abe
00000220: 69e8 2abd bdcf eb3d f9cf bf3d d1d6 4a3c
00000230: ea2e 2c3f e7a9 253f 12a6 55be 5ca9 fe3e
00000240: aa4f b43d cafe 82be ddd6 883e 87fe 1dbd
00000250: caf2 ce3d 320e 34ba 3bf9 7abe c85f 10bf
00000260: fbb6 1abf 03d1 be3d 5e70 0fbe f1c8 ae3c
00000270: 4832 643e 5344 30be 0bcd a9be 7e4e 30be
00000280: 81aa 813e a5ba 5e3e d778 04be dcd6 f9bd
00000290: 58b7 9c3e 4f36 243e fef2 963d d57f 10bf
000002a0: 5501 223e f9e7 443e e38e e5bc 04e5 85be
000002b0: 4bb9 0e3e e265 5abf 1958 ea3c 12be febd
000002c0: a99e 1b3f 1f12 c4bd 9f27 52bf 8888 c0be
000002d0: c9f6 a53e 6e12 263c 34e0 86bf 6846 933e
000002e0: 3be5 8e3d 1429 043e 3382 9f3c 95ab e0bd
000002f0: ed74 3abe ec5f 8e3d 3a3e e6be 1843 b03e
00000300: 5bc2 f7be 1fea 19be f7cf 7abe f232 1b3f
00000310: ff17 043e 104e 06bf f406 473f 6c86 b6bd
00000320: 8391 b33c 2759 b03e 7905 5ebc ab83 ce3e
00000330: 103d 2cbe cd11 ce3d 020d 27be 76c8 44bd
00000340: cc2c 25be f6a5 51ba bbd7 aa3e ca89 4abe
00000350: 77f8 3abd 6682 6dbd eb8d a9bc e24b 89bd
00000360: 8a51 17be e8ad 8f3e c670 c63e 45bc 0ebe
00000370: 544d a4be 42b2 843e 686f fc3e c965 03be
00000380: 301e 473f a19e 0d3e 2ae4 393e 2ccd f1bd
00000390: 36e6 823e e48b b2be 077f 5abe 9b54 11be
000003a0: 443c 6b3e c4b2 ae3d 4487 b43e 3246 2f3f
000003b0: a551 d1bc b89a e9bb b73e 263e c64f 0f3f
000003c0: 8ff5 8d3e 862a a13e 8f88 ea3e c8b3 203e
000003d0: 75f5 a43e 45f8 9b3d 113d aebd dd7e 353e
000003e0: bc50 91be 36b2 b53d 6fc4 2dbf e52f a93e
000003f0: c1f1 83bc ed50 2abe fc9f 5a3e 6060 243e
0.19232787 0.34738445 0.27042794 -0.6463777 -0.0105886 0.09156742 0.107909955 -0.16114993
-0.15108353 -0.14648683 -0.045908798 0.6075541 0.16749218 -0.09109968 0.19211587 0.45655623
0.053169493 0.058868684 0.43007624 0.018812621 0.0031538373 0.28513938 -0.3466212 0.075878955
-0.34485698 0.5635636 0.051456004 -0.4363727 -0.40391847 0.23559916 -0.038813427 0.023011243
0.18274842 -0.041764535 0.031591777 0.041101407 -0.47626278 0.17951961 0.14892589 -0.38026097
-0.037515208 0.1253473 -0.28450635 0.060649246 -0.33712918 0.013315961 0.081922814 0.2213367
-0.51828194 -0.16769233 -0.084568284 -0.1465043 -0.32618776 -0.20385899 0.34672928 0.15334933
0.14160094 0.20574342 -0.08363944 -0.10845947 0.32352325 -0.22586465 -0.2560155 0.08885825
0.12469845 -0.008827314 -0.3650682 0.19880207 0.08041475 0.075579 -0.42425635 0.14887272
0.019309051 -0.2204199 0.35411698 0.33721843 -0.31361094 -0.070620164 -0.02909918 -0.25922775
0.25583047 -0.16888 -0.12396168 0.05615947 -0.04986853 0.17074208 -0.18784647 0.37427536
0.3291056 0.12317714 0.31678146 0.19280511 -0.032995176 0.39848357 0.11284396 0.3953479
-0.24894303 -0.023555337 -0.08813675 -0.07634355 -0.045443807 0.11898971 0.16124794 -0.09609924
-0.13616253 0.23019023 0.12803632 -0.06402087 -0.019624239 0.20236629 -0.18460019 -0.004788387
0.14463168 0.22227244 -0.27729505 0.29841328 -0.28388438 -0.30228233 -0.18994564 -0.16532767
-0.075495936 0.09002423 0.39490342 -0.17335887 -0.25882968 -0.009833546 0.15954818 -0.18373281
0.014235485 -0.1484168 -0.09832602 0.8460129 -0.105510905 0.1992384 0.027957242 -0.1980633
-0.04172555 0.11514232 0.093658395 0.012380318 0.67259085 0.64712375 -0.20864132 0.49738586
0.08804257 -0.25585014 0.26726428 -0.038572814 0.10104902 -0.00068685703 -0.24509136 -0.5639615
-0.60435456 0.093172096 -0.14007708 0.02133605 0.22284806 -0.17213564 -0.33164248 -0.17217442
0.25325397 0.21750887 -0.12936722 -0.12199184 0.3060863 0.16036342 0.07370566 -0.56445056
0.1582082 0.19229116 -0.028022235 -0.26151288 0.13937871 -0.8531171 0.028606461 -0.12438597
0.6078897 -0.09573769 -0.82091707 -0.37604165 0.32414845 0.01013623 -1.0537171 0.28764653
0.06977316 0.12906295 0.019471264 -0.10970227 -0.18208666 0.069518894 -0.4496935 0.34426188
-0.4839047 -0.15030716 -0.24493395 0.6062461 0.12899779 -0.52462864 0.77744985 -0.08912358
0.021919971 0.34443018 -0.0135511095 0.4033483 -0.16820168 0.10061989 -0.16313556 -0.048042737
-0.1613037 -0.00079974474 0.33367714 -0.19779125 -0.04564711 -0.057985686 -0.020697555 -0.067039266
-0.14777198 0.28062367 0.38757914 -0.13939007 -0.32090247 0.2591725 0.49303746 -0.12831797
0.7778044 0.13830043 0.18153444 -0.118067116 0.25566262 -0.34872353 -0.2133752 -0.1419243
0.22972208 0.085301906 0.3525945 0.68466485 -0.025551626 -0.0071290396 0.16234861 0.559811
0.2772641 0.31477755 0.4580731 0.15693581 0.3221852 0.07615713 -0.08507741 0.17724176
-0.28381908 0.08871882 -0.6787786 0.33044353 -0.016106488 -0.16632433 0.21350092 0.16052389

fc.bias f4 [18]
00000000: 9cf0 333d 3e0c 80be e1aa 35bd 9e3f b4be
00000010: fcfb 143e 4c12 883e af93 b5bd cff2 0d3d
00000020: 302a 08be b64f 9b3d e13c f23d b32e b73c
00000030: 2952 70bc a054 13bc 3a29 503d 4426 83bd
00000040: 1097 1dbe 9846 b6be
0.043930635 -0.2500934 -0.044352416 -0.35204786 0.1454925 0.2657646 -0.08866059 0.03465539
-0.13297343 0.07583563 0.11828018 0.022361135 -0.014668026 -0.008992344 0.050820567 -0.06403783
-0.15389657 -0.35600734
